jupyter_notebook/lr.pth (torch, 2298 bytes, 1 tensors)

weight f4 [1, 21]
0.16183828 0.29530266 -0.0022243464 0.1545045 -0.15895313 0.033126358 -0.10986704 0.23885922
0.08915173 0.118582495 0.12844309 0.119167246 0.0684037 0.090928495 0.22074644 -0.035217278
0.08141548 0.049299654 -0.118569404 -0.051920034 0.017120138
00000000: efb8 253e e931 973e 57c6 11bb 6d36 1e3e
00000010: 9cc4 22be 81af 073d f801 e1bd 8397 743e
00000020: 2f95 b63d 61db f23d 9686 033e f50d f43d
00000030: 3d17 8c3d b838 ba3d 5b0b 623e fe3f 10bd
00000040: 29bd a63d 6fee 493d 84d4 f2bd 1aaa 54bd
00000050: 883f 8c3c
