jupyter_notebook/lr_1.pth (torch, 22594 bytes, 11 tensors)

weight f4 [16, 21]
0	0xbe039fcc	-0.12853926
1	0x3e54f887	0.2079793
2	0xbda6fef3	-0.081540965
3	0xbdfe8e97	-0.124295406
4	0xbe495ffb	-0.1966552
5	0x3c1ff735	0.009763529
6	0x3dc5fdb9	0.096675344
7	0x3d45daa3	0.04830421
8	0x3d30ee90	0.04319626
9	0xbe299406	-0.16560373
10	0xbe509db9	-0.20372666
11	0x3b74b728	0.0037340615
12	0x3e4bcbf6	0.19902024
13	0x3e00e8f4	0.12588865
14	0xbe0214e1	-0.12703277
15	0xbce7e21f	-0.028306065
16	0xbe24c0cc	-0.16089171
17	0xbdd7a229	-0.105289765
18	0x3d21f063	0.03953589
19	0x3df33c9b	0.11876794
20	0x3e391b62	0.18076852
21	0xbe4ccaa6	-0.19999179
22	0x3e150319	0.14551963
23	0xbe1e12f6	-0.1543692
24	0x3da8676e	0.08222853
25	0x3e3cff0a	0.18456665
26	0x3b481d70	0.0030535124
27	0x3e4b442b	0.19850223
28	0xbe3e3ed1	-0.1857865
29	0xbdab55c6	-0.08365969
30	0x3e028580	0.12746239
31	0xbd43e3ed	-0.04782479
32	0xbd360164	-0.04443492
33	0xbdbabd1b	-0.091181
34	0x3e1a8ebe	0.15093514
35	0x3ddbba48	0.1072889
36	0x3d8fdd2b	0.07024606
37	0xbdfb8564	-0.122813016
38	0xbe355473	-0.17707996
39	0x3cc1b13b	0.02364408
40	0x3d8475ca	0.06467779
41	0xbdceac3b	-0.10091444
42	0xbd792d1d	-0.06083404
43	0x3e16e71f	0.14736603
44	0x3c90383a	0.017604936
45	0x3c227cf4	0.009917486
46	0xbd5c5f46	-0.053801797
47	0xbe4a5bce	-0.19761583
48	0xbe520d9b	-0.20513003
49	0xbdd52d4e	-0.10409032
50	0xbde3d4a5	-0.11124543
51	0x3d8b3649	0.067974634
52	0xbd8211c9	-0.063510485
53	0xbdaed1a8	-0.085360825
54	0x3e54f3b3	0.20796089
55	0x3d9c0e1c	0.07619879
56	0x3e1f5c40	0.15562534
57	0xbdd7f71d	-0.1054518
58	0xbdb66dcf	-0.08907663
59	0x3da41c55	0.080132164
60	0xbe14aea5	-0.14519747
61	0xbe12215b	-0.14270537
62	0xbc2f41aa	-0.010696808
63	0xbda3bd4d	-0.07995091
64	0xbe2795f7	-0.16365801
65	0x3e047155	0.12933858
66	0x3e33a4fe	0.17543408
67	0x3d1143c9	0.035465036
68	0xbd1baf02	-0.038008697
69	0xbe4eecb1	-0.20207478
70	0xbda317b9	-0.07963509
71	0x3d645760	0.05574739
72	0x3dd2af0d	0.102872945
73	0xbce1dda3	-0.027571505
74	0xbdb0f785	-0.086409606
75	0x3df925ba	0.12165399
76	0xbe322ae1	-0.1739917
77	0x3e0d3a6f	0.13791822
78	0xbdad7808	-0.0847016
79	0x3b56a029	0.0032749271
80	0xbd3007a1	-0.042976025
81	0x3cd87f28	0.02642782
82	0xbd870e60	-0.06594539
83	0x3e22973f	0.15878008
84	0xbbbb4664	-0.0057151783
85	0x3e2e735e	0.17036197
86	0x3e56d620	0.2098012
87	0xbdd9d554	-0.10636392
88	0xbe22feb0	-0.15917468
89	0x3e33650a	0.17519012
90	0x3e2f204e	0.17102167
91	0xbe2ab566	-0.1667076
92	0xbc89609f	-0.016769705
93	0xbe5c5f99	-0.21520843
94	0xbe36ee50	-0.17864347
95	0x3d2c7bde	0.042110316
96	0x3d6e3d25	0.05816378
97	0x3d3cf2ec	0.046130106
98	0xbd738179	-0.059449647
99	0x3e4e2773	0.20132236
100	0x3cfeb6ba	0.03109299
101	0xbe03d262	-0.12873223
102	0xbc4ae9e4	-0.012384865
103	0x3d5691ff	0.052385326
104	0x3d9ca3aa	0.07648404
105	0xbe1e0e0c	-0.15435046
106	0x3da7988b	0.08183392
107	0xbde410bd	-0.11136005
108	0xbe39a76a	-0.1813027
109	0xbdf432a9	-0.11923725
110	0x3e577d49	0.21043886
111	0x3e3ef98d	0.18649884
112	0x3e48222f	0.1954429
113	0x3e0315b6	0.12801251
114	0x3e28bdd1	0.16478659
115	0xbcef2460	-0.02919215
116	0xbdf5b47b	-0.119973145
117	0x3ddf2a05	0.108966865
118	0xbde7931b	-0.11307355
119	0xbe16caf2	-0.14725855
120	0xbd8ecaca	-0.06972273
121	0x3d3bbb0f	0.04583269
122	0x3de5deb9	0.112241216
123	0xbdad8aa1	-0.08473707
124	0xbe03742d	-0.12837286
125	0x3cf104dd	0.029421264
126	0xbe039969	-0.1285149
127	0xbe1177ad	-0.14205809
128	0x3de8f96f	0.11375701
129	0xbd15f07a	-0.03660629
130	0x3e4c1efc	0.19933695
131	0x3e59346f	0.21211408
132	0x3d859096	0.06521718
133	0x3d9a24da	0.0752656
134	0x3d4d0df7	0.050062146
135	0x3b687b6b	0.0035473953
136	0xbc822a7b	-0.015889397
137	0x3b47b5d6	0.0030473373
138	0x3da69d05	0.08135418
139	0x3e500110	0.20312905
140	0xbd6766a8	-0.056494385
141	0xbdbcebe8	-0.09224683
142	0xbd578ba1	-0.052623395
143	0xbdd81145	-0.10550169
144	0x3d1838cc	0.03716354
145	0x3e26cc8c	0.16288966
146	0x3e2e9ba6	0.17051563
147	0x3dccfed1	0.1000954
148	0xbe246ac1	-0.16056348
149	0xbdefee82	-0.11715414
150	0xbd44db63	-0.048060786
151	0xbd25373d	-0.040335882
152	0x3c92e5d0	0.017931849
153	0xbe4d25ae	-0.20033905
154	0x3d8ac66d	0.06776128
155	0xbe2a8002	-0.16650394
156	0xbe0d7c81	-0.13817026
157	0xbe39b3a0	-0.18134928
158	0x3e42edc7	0.19036017
159	0xbe53c3d9	-0.20680179
160	0x3e28832c	0.16456288
161	0xbbeb6216	-0.0071833236
162	0xbccf5978	-0.025311217
163	0x3e0bc68a	0.13649955
164	0xbca4e7a8	-0.020129994
165	0x3e0beec4	0.136653
166	0x3e21a890	0.15786958
167	0xbe4209fd	-0.18949123
168	0x3dab595e	0.08366655
169	0x3d2c1507	0.04201224
170	0x3d41a0c1	0.047272447
171	0x3cfe3034	0.031028844
172	0x3d72f3a6	0.059314393
173	0xbdd62c78	-0.104577005
174	0xbce51b17	-0.027967019
175	0x3e53f268	0.2069794
176	0x3e164fdd	0.14678903
177	0xbc053204	-0.0081296
178	0xbe521eeb	-0.20519607
179	0x3c219377	0.0098618185
180	0xbe17e8ae	-0.14834854
181	0x3e3562f3	0.17713527
182	0xbe07f532	-0.13277128
183	0xbc82416e	-0.01590034
184	0xbd466862	-0.04843939
185	0x3d1e36e3	0.038626563
186	0x3e51b6f7	0.20479952
187	0x3ca979c7	0.02068795
188	0x3e014a71	0.12626053
189	0x3e2d6d4e	0.16936228
190	0x3e347bfa	0.17625418
191	0xbd9a4b72	-0.07533921
192	0xbd48f328	-0.049060017
193	0x3dd7226a	0.10504611
194	0xbd73f2fa	-0.059557892
195	0x3dd153df	0.10221075
196	0xbd43be2d	-0.047788788
197	0xbe178a18	-0.14798772
198	0x3db5b5d5	0.08872572
199	0x3d099536	0.033589564
200	0x3dc76fef	0.097381465
201	0x3e5de491	0.21669222
202	0x3e187417	0.14888035
203	0x3e53f138	0.20697486
204	0x3c40ad1b	0.011760022
205	0xbe402e1c	-0.1876759
206	0xbe1cb1ed	-0.15302248
207	0xbe0aee8e	-0.13567564
208	0xbe44e86e	-0.1922929
209	0xbde0125f	-0.10941004
210	0xbe4db609	-0.20088972
211	0xbe4e290c	-0.20132846
212	0xbe05a450	-0.13050961
213	0xbe5c5e4f	-0.21520351
214	0xbe091f10	-0.13390756
215	0x3daa9eea	0.08331092
216	0x3e3a6ea4	0.18206269
217	0xbd8527ba	-0.06501718
218	0xbd81a701	-0.063306816
219	0x3deeac18	0.11653918
220	0xbddc80c8	-0.107667506
221	0xbdd36e85	-0.10323814
222	0x3e09d359	0.13459529
223	0xbe42d5d7	-0.19026886
224	0x3cda20d5	0.026626984
225	0x3e456971	0.19278504
226	0x3d18c720	0.037299275
227	0x3d738462	0.059452422
228	0xbe0232d4	-0.12714702
229	0xbb482eed	-0.0030545548
230	0x3c460332	0.012085723
231	0x3d5b99ea	0.05361358
232	0x3dad8e4f	0.08474409
233	0x3e423085	0.18963821
234	0xbe2a7982	-0.16647914
235	0x3bd6116f	0.00653284
236	0xbddf9e33	-0.10918846
237	0xbe30ce72	-0.17266253
238	0xbc8e09a5	-0.017338583
239	0xbe44d390	-0.1922133
240	0x3e1bfe51	0.15233733
241	0x3ccef7d9	0.025264667
242	0xbdf0dee5	-0.11761264
243	0x3de9446c	0.113900036
244	0xbe534a80	-0.20633888
245	0xbdacc20b	-0.08435448
246	0xbd2e3766	-0.0425333
247	0xbe3db714	-0.1852687
248	0xbe0e2818	-0.13882482
249	0xbd11986d	-0.035545755
250	0x3e2990ab	0.16559093
251	0x3e57b087	0.21063434
252	0x3e0dfb67	0.13865434
253	0xbe0585ad	-0.13039275
254	0xbe1247af	-0.14285158
255	0x3e431f59	0.19054927

bias f4 [16]
0	0x3d2ee62d	0.04269998
1	0x3e019b07	0.12656794
2	0x3e330cd9	0.1748537
3	0x3e3aebad	0.18253966
4	0xbdfa0a23	-0.12208965
5	0x3e4d4dd4	0.2004922
6	0x3e072e4a	0.13201252
7	0xbdd0d5a0	-0.10196996
8	0xbdd6a0bb	-0.10479876
9	0xbe3b66d7	-0.18300949
10	0x3d610dc8	0.054944783
11	0xbe353705	-0.1769677
12	0x3dbcaa45	0.09212164
13	0x3d8cbba4	0.06871727
14	0xbe42136e	-0.18952724
15	0x3d735671	0.05940861

weight f4 [32, 16]
0	0xbca7dd67	-0.020491315
1	0x3de92044	0.11383107
2	0x3e12a7d9	0.14321841
3	0xbe7f0071	-0.24902512
4	0x3e6a821d	0.22901197
5	0x3e565361	0.20930244
6	0x3dcb4fd0	0.099273324
7	0xbe6a3c54	-0.22874576
8	0xbdb72b77	-0.08943837
9	0xbd9492e7	-0.07254582
10	0xbd84500a	-0.06460579
11	0x3e104945	0.1409045
12	0x3db933f9	0.09043116
13	0x3e4a820c	0.19776171
14	0xbdbfc180	-0.09363079
15	0x3dabb94c	0.08384952
16	0x3db60151	0.0888697
17	0xbe554168	-0.20825732
18	0xbe785338	-0.24250495
19	0xbe04e6e1	-0.12978698
20	0x3e2f3d46	0.17113218
21	0xbe710b50	-0.23539472
22	0xbe5eef64	-0.21771008
23	0x3e0f16ec	0.13973588
24	0x3e09f9f9	0.13474263
25	0x3e527866	0.20553741
26	0xbe4143aa	-0.18873468
27	0xbe3b5dc8	-0.18297493
28	0x3e032aed	0.12809344
29	0x3e5e9cfe	0.21739575
30	0x3e18e87b	0.14932434
31	0x3d202732	0.03909988
32	0x3da91af8	0.08257097
33	0x3e73855a	0.23781338
34	0xbe24f53e	-0.16109177
35	0xbde7300d	-0.11288462
36	0x3e332366	0.17493972
37	0xbe2efeda	-0.17089406
38	0xbe0cd138	-0.13751686
39	0x3e3bd0ca	0.18341365
40	0x3da27306	0.07932095
41	0x3da5dcbb	0.080987416
42	0xbdd8a362	-0.10578038
43	0xbb61ef4f	-0.0034474914
44	0x3e6b1682	0.22957805
45	0xbe198949	-0.14993776
46	0x3b24cce0	0.002514653
47	0x3df4861c	0.11939642
48	0xbe30bb30	-0.17258906
49	0x3e789f0c	0.24279422
50	0xbdffccf4	-0.124902636
51	0xbd75e638	-0.060034007
52	0xbd8a8830	-0.06764257
53	0xbe26d31e	-0.16291472
54	0xbe7b3428	-0.24531615
55	0x3e105894	0.1409629
56	0x3d880670	0.06641853
57	0xbe6fc512	-0.2341502
58	0xbe24c4ba	-0.1609067
59	0x3e7d05b0	0.24709201
60	0x3dc3b450	0.09555876
61	0x3dcd6ff0	0.10031116
62	0xbe192a10	-0.14957452
63	0xbde07574	-0.109599024
64	0xbd1a8270	-0.03772205
65	0xbd3b3adc	-0.04571043
66	0xbe2f6ecb	-0.17132108
67	0x3ca94600	0.020663261
68	0x3ccb4e0b	0.024817487
69	0xbd01a676	-0.03165289
70	0x3d0e0eea	0.034682192
71	0xbdcae0df	-0.09906172
72	0x3d855301	0.06509972
73	0x3dc10f41	0.094267376
74	0xbe06e01f	-0.13171433
75	0xbe7dda3b	-0.2479028
76	0x3e060725	0.13088663
77	0x3d7424d9	0.059605453
78	0xbe0229a3	-0.12711196
79	0x3e76c9e5	0.24100454
80	0xbde78ae3	-0.113057874
81	0x3e2d4bad	0.169234
82	0x3e021519	0.1270336
83	0xbe567d8e	-0.20946333
84	0x3e253bcf	0.16136096
85	0xbe6b5f3d	-0.2298555
86	0xbe0dd0d6	-0.13849196
87	0xbd290cf5	-0.041272122
88	0xbe2c7861	-0.16842796
89	0x3e7a4d94	0.24443656
90	0xbd4c7676	-0.04991766
91	0x3dcb5e23	0.099300645
92	0xbe642c42	-0.22282508
93	0x3e13893b	0.14407818
94	0xbd9f0c54	-0.07766023
95	0xbe42ba11	-0.19016291
96	0x3d15e430	0.03659457
97	0x3df81e98	0.1211521
98	0x3e5d903f	0.21637057
99	0xbe1c4515	-0.15260728
100	0xbdfbeea7	-0.12301379
101	0x3d44f491	0.0480848
102	0x3d8adab5	0.06779996
103	0x3dc4f1eb	0.09616455
104	0x3e0c89f1	0.13724495
105	0xbd682404	-0.056674972
106	0x3e0e39b5	0.13889201
107	0x3e3cbd7e	0.1843166
108	0xbd859c64	-0.0652397
109	0x3e3627fc	0.1778869
110	0x3dfa14cf	0.12211
111	0x3e61e1fb	0.22058861
112	0xbe117a66	-0.14206848
113	0xbdfcd488	-0.123452246
114	0xbd940a04	-0.07228473
115	0x3c4fc660	0.012681574
116	0x3e19a6a4	0.15004975
117	0xbe12240e	-0.14271566
118	0x3e002adc	0.1251635
119	0xbdb77dc4	-0.08959535
120	0x3e1aa6e8	0.15102732
121	0xbc427780	-0.011869311
122	0xbe60473c	-0.21902174
123	0xbe0cdcea	-0.13756147
124	0xbe3947d0	-0.180938
125	0x3dfdeecc	0.123990625
126	0xbe2ba90c	-0.16763705
127	0xbcaaa2c0	-0.020829558
128	0x3d5ce111	0.053925578
129	0xbe0c704d	-0.13714714
130	0x3d939b98	0.072074115
131	0xbe7a0446	-0.24415693
132	0xbe372b90	-0.17887712
133	0xbe67f7b4	-0.22653085
134	0xbd9ae7f7	-0.07563775
135	0xbdbaa26d	-0.091130115
136	0x3d1291c2	0.035783537
137	0xbd3d61f3	-0.04623599
138	0x3df098b8	0.11747879
139	0x3e6ab31a	0.22919884
140	0x3db78ded	0.08962617
141	0xbdc9ba44	-0.098499805
142	0xbe6fb6ec	-0.23409623
143	0x3db95e37	0.09051173
144	0xbdfdc4fe	-0.12391089
145	0x3e021b2d	0.12705679
146	0x3e2b2818	0.16714513
147	0x3dc559df	0.09636282
148	0x3e702e84	0.23455244
149	0x3e7320cd	0.23742981
150	0x3d5823fc	0.052768692
151	0xbe3acc76	-0.18242058
152	0x3e648a73	0.22318439
153	0xbdf32072	-0.11871423
154	0xbdf1ca6e	-0.118061885
155	0x3e5637e2	0.20919755
156	0x3e4636a8	0.19356787
157	0x3d9aa368	0.075506985
158	0x3c7cfe52	0.015441494
159	0xbe5768f0	-0.21036124
160	0xbcd46a51	-0.025929602
161	0x3e759c7c	0.23985475
162	0x3d826990	0.06367791
163	0x3cafab80	0.021444082
164	0xbd548d3f	-0.051892515
165	0xbdb279f3	-0.08714666
166	0x3e18a6e1	0.14907409
167	0x3c7ee993	0.015558618
168	0x3e26a198	0.1627258
169	0xbd351167	-0.04420605
170	0x3ddfbb41	0.10924388
171	0x3dd3594b	0.10319766
172	0x3d23adcb	0.039960664
173	0x3e20e1e7	0.15711175
174	0x3e208f7c	0.15679735
175	0x3e6d50ac	0.23175305
176	0x3e44c15f	0.1921439
177	0xbd834085	-0.064087905
178	0xbe58bc1a	-0.21165505
179	0x3d3ad30b	0.045611423
180	0xbb0f7be4	-0.0021893913
181	0xbd859354	-0.06522241
182	0xbd2c1d19	-0.042019937
183	0x3c3d64a7	0.011559642
184	0x3e3a9edd	0.18224664
185	0x3d9f7282	0.077855125
186	0xbdb5d263	-0.08878019
187	0xbdd28c14	-0.10280624
188	0xbd7e2702	-0.06204892
189	0xbdc5eb24	-0.0966399
190	0x3e6608fe	0.22464368
191	0x3e07808f	0.13232635
192	0x3e671c0a	0.2256929
193	0x3a31386a	0.00067604205
194	0x3d4e4d26	0.050366543
195	0x3db13fd0	0.086547494
196	0xbe724629	-0.23659576
197	0x3cb6fea1	0.022338213
198	0xbc893061	-0.016746702
199	0xbe0fb85a	-0.14035168
200	0xbe46bca0	-0.19407892
201	0x3e629be4	0.2212978
202	0x3e50287a	0.2032794
203	0x3ded58cc	0.11589202
204	0x3e741706	0.23836908
205	0xbdcfbd90	-0.10143578
206	0xbd3130c3	-0.043259393
207	0x3dc1a31c	0.09454939
208	0xbd292ea6	-0.041304253
209	0xbd487295	-0.0489374
210	0xbe539988	-0.20664036
211	0x3d89fd7d	0.06737802
212	0xbe1ab530	-0.1510818
213	0x3c14f4c0	0.009091556
214	0x3e79b378	0.24384868
215	0xbd9d99f8	-0.07695383
216	0xbda13ede	-0.07873319
217	0x3e1a73ad	0.1508319
218	0xbdbc3d0c	-0.09191331
219	0xbcafe080	-0.021469355
220	0x3e6f2088	0.23352253
221	0xbdd1e814	-0.102493435
222	0xbe37234b	-0.17884557
223	0xbe0f1525	-0.1397291
224	0xbd8df324	-0.06931141
225	0xbdf2f180	-0.11862469
226	0xbe04d8b6	-0.12973294
227	0x3dced1d0	0.10098612
228	0x3d2e0428	0.042484432
229	0xbda3df1c	-0.08001539
230	0xbe46e3aa	-0.19422784
231	0xbda13550	-0.07871497
232	0xbdd81584	-0.10550979
233	0xbda69d50	-0.08135474
234	0xbe66f188	-0.22553074
235	0x3d5c9970	0.053857267
236	0xbe3c16d8	-0.18368089
237	0xbe475f62	-0.1946998
238	0xbe512916	-0.2042583
239	0x3dd5b350	0.10434592
240	0xbe1a22ca	-0.15052333
241	0xbdd36c26	-0.10323362
242	0x3e48a8dc	0.19595665
243	0x3e07c9c9	0.13260569
244	0x3e12be2f	0.14330362
245	0xbe7312dc	-0.23737663
246	0xbe37a06c	-0.1793229
247	0xbdc18e24	-0.09450939
248	0x3e537106	0.20648584
249	0x3cd148f5	0.025547484
250	0xbe3f7630	-0.18697429
251	0x3acd068c	0.001564221
252	0xbe46e2cd	-0.19422455
253	0xbd608d37	-0.054822173
254	0xbd8ce5f3	-0.06879797
255	0x3e5d747c	0.21626467

bias f4 [32]
0	0x3d96b3f4	0.07358542
1	0xbe279bf6	-0.16368088
2	0x3dfb5d8d	0.12273703
3	0xbe5aae56	-0.21355566
4	0x3e5c5f5d	0.21520753
5	0x3e78af1f	0.24285553
6	0x3d8bc888	0.06825358
7	0xbe209f2c	-0.15685719
8	0x3df8f201	0.121555336
9	0x3d2d41ac	0.042298958
10	0x3d8b939c	0.06815264
11	0x3da7a40c	0.08185586
12	0x3e429a50	0.19004178
13	0xbddbb7c1	-0.10728408
14	0xbd665800	-0.056236267
15	0x3d8b24c3	0.06794121
16	0x3cdfa31b	0.027299454
17	0x3e4e34cb	0.20137326
18	0xbe067608	-0.13130963
19	0xbc04740c	-0.008084308
20	0x3d3ef5db	0.046621185
21	0xbd87f995	-0.06639401
22	0x3e2ddd85	0.16979034
23	0x3cd41a31	0.025891395
24	0xbe6c91b5	-0.23102458
25	0xbce18d84	-0.0275333
26	0xbde8e78a	-0.113722876
27	0x3cc7f642	0.024409417
28	0xbcea139b	-0.028573802
29	0xbe7db7a1	-0.2477708
30	0xbd3a9948	-0.045556337
31	0xbcc4072b	-0.0239292

weight f4 [32, 32]
0	0xbd56ee71	-0.05247349
1	0x3e262532	0.16225126
2	0xbd221bee	-0.039577417
3	0x3de89472	0.11356439
4	0x3d30966c	0.043112203
5	0xbe19105b	-0.14947645
6	0x3d263a21	0.04058278
7	0x3e160465	0.14650114
8	0xbdecee51	-0.11568893
9	0xbdeb37d3	-0.11485257
10	0x3e2ffa6a	0.17185369
11	0x3e10daf9	0.14146031
12	0xbdcbffd7	-0.09960907
13	0x3dd9d6f7	0.106367044
14	0xbcb943f3	-0.022615409
15	0xbe32af1c	-0.17449611
16	0x3c517690	0.012784615
17	0x3d665dc0	0.05624175
18	0xbd5931e2	-0.053026088
19	0x3d7b357e	0.06133031
20	0xbe1ae74a	-0.15127292
21	0x3dfae5f6	0.12250893
22	0x3e18bd6f	0.14916013
23	0x3dc7178e	0.097212896
24	0x3cf3c2d6	0.029755991
25	0x3d6d6b47	0.057963636
26	0xbe0316ef	-0.12801717
27	0xbd3597ba	-0.04433415
28	0xbc8ccf9b	-0.017188838
29	0xbdc9b792	-0.098494664
30	0xbe05b45b	-0.13057081
31	0x3df1d61f	0.118084185
32	0x3df5c289	0.11999995
33	0xbe246b65	-0.16056593
34	0x3d663f8e	0.056212954
35	0x3d934733	0.071913145
36	0x3e2bf5d5	0.16792996
37	0x3dd16036	0.10223429
38	0x3e266c5d	0.16252275
39	0xbd6d0e33	-0.05787487
40	0x3dfd9036	0.12381022
41	0x3e134aaf	0.14383958
42	0xbe2af2bc	-0.16694158
43	0xbe114e9e	-0.14190146
44	0x3d12af3a	0.03581164
45	0x3dc5afd2	0.09652676
46	0xbdb3dd94	-0.08782497
47	0x3c9f7b70	0.01946804
48	0xb974cc9c	-0.00023345876
49	0x3d374bc2	0.044749983
50	0xbdc28a94	-0.09499088
51	0x3dcc3bcc	0.09972343
52	0x3df0c74a	0.11756761
53	0xbdfb341a	-0.12265797
54	0x3ae0f421	0.00171626
55	0x39f9d59d	0.00047652135
56	0x3d6888a7	0.056770947
57	0x3e28a282	0.16468242
58	0x3d546f76	0.05186411
59	0xbd2487be	-0.040168516
60	0x3e228f3d	0.15874954
61	0xbd89c218	-0.067264736
62	0xbd52406a	-0.05133096
63	0x3c452d00	0.012034655
64	0xbe09d90b	-0.13461702
65	0x3c9d9597	0.019236369
66	0xbdf5a266	-0.11993866
67	0x3c94e672	0.018176291
68	0x3c8abe81	0.016936542
69	0x3cc87460	0.024469554
70	0xbe18a71e	-0.149075
71	0xbe2bede8	-0.16789973
72	0x3da6948c	0.08133802
73	0x3e1b3dcf	0.15160297
74	0xbe20a1ae	-0.15686676
75	0x3d8618d7	0.065477066
76	0xbe054092	-0.13012913
77	0x3c3592d0	0.011082366
78	0x3e2869a9	0.16446556
79	0x3e095322	0.13410619
80	0xbe0459b6	-0.12924847
81	0x3ddff26a	0.10934909
82	0x3dbd1959	0.0923335
83	0xb98e295f	-0.00027115174
84	0x3e2f5bb8	0.17124832
85	0xbd8fcaf3	-0.07021131
86	0xbd288118	-0.04113874
87	0xbdb6fabe	-0.08934544
88	0x3cd06285	0.025437603
89	0x3d3fb9df	0.04680812
90	0x3c66c74d	0.014085603
91	0xbdcbb246	-0.09946112
92	0xbda2fa48	-0.079578936
93	0x3d764bf6	0.060131036
94	0xbe1eb8f8	-0.15500247
95	0xbce18717	-0.027530236
96	0xbb8050d2	-0.0039158845
97	0xbd92af5c	-0.071623534
98	0x3d83c09e	0.06433223
99	0x3c3aad8c	0.011393916
100	0x3dfe2caf	0.124108665
101	0xbc809ce1	-0.015699806
102	0xbde47f1c	-0.11157057
103	0x3dffcc90	0.12490189
104	0x3cca3ba9	0.024686651
105	0xbd4f5fda	-0.05062852
106	0xbdee9ee6	-0.11651401
107	0x3d29b73a	0.041434504
108	0xbe2ca5cc	-0.16860121
109	0x3d3eb4b5	0.046559054
110	0x3db30213	0.0874063
111	0xbe1eca4e	-0.1550686
112	0xbded0448	-0.11573082
113	0xbe0223b5	-0.12708934
114	0x3e1825df	0.14858197
115	0x3e19e366	0.15028152
116	0x3c354fba	0.011066372
117	0x3e29f127	0.16595899
118	0xbd720fdb	-0.059097152
119	0xbe2fbcd3	-0.17161874
120	0x3d7ceaa1	0.061747197
121	0x3d804248	0.06262642
122	0x3e3177d9	0.17330875
123	0xb8569b5e	-5.1166273e-05
124	0x3e0abb87	0.13548099
125	0x3dddeaa6	0.10835771
126	0x3e030422	0.12794545
127	0xbe33a19d	-0.1754212
128	0x3e150fd3	0.14556818
129	0xbe1a4f7a	-0.1506938
130	0x3e22492d	0.15848227
131	0xbbf00cb4	-0.007325733
132	0xbe206c24	-0.15666252
133	0x3d495c54	0.049160317
134	0xbd136233	-0.035982322
135	0xbe229722	-0.15877965
136	0xbd8340bb	-0.06408831
137	0x3c954ff0	0.018226594
138	0x3e0cfc7e	0.13768193
139	0xbd5e9a55	-0.0543464
140	0x3dd70a13	0.104999684
141	0x3cb559ab	0.022137484
142	0x3bc341bb	0.0059587634
143	0x3d0a8c6e	0.03382533
144	0xbded983b	-0.11601301
145	0xbe167684	-0.14693648
146	0xbd638375	-0.05554529
147	0xbe28af00	-0.16473007
148	0xbda8d641	-0.08243991
149	0x3c053f46	0.008132761
150	0xbdee7128	-0.116426766
151	0xbd962c15	-0.07332627
152	0xbd021b5c	-0.031764373
153	0xbca6d512	-0.020365272
154	0xbdc7d9c3	-0.097583316
155	0x3c0b2baa	0.008494297
156	0xbccb4380	-0.02481246
157	0x3d4f153b	0.050557356
158	0x3c02d1a3	0.007984552
159	0xbdb4ca89	-0.08827693
160	0xbd788bce	-0.060680203
161	0xbaf2d989	-0.0018527965
162	0xbde0206a	-0.109436825
163	0x3c62bcce	0.01383896
164	0xbc42f979	-0.011900299
165	0x3d8ceaec	0.06880745
166	0x3d2e38b2	0.042534538
167	0x3e0778ce	0.13229677
168	0xbbbde141	-0.0057946746
169	0xbe054400	-0.13014221
170	0x3da3add0	0.079921365
171	0xbdf39596	-0.11893766
172	0xbcc1f9a4	-0.023678608
173	0xbd6a6df4	-0.057233766
174	0xbd895fa2	-0.06707694
175	0xbd85a577	-0.065257005
176	0x3e26cc76	0.16288933
177	0x3dd0ea72	0.10200967
178	0x3d48ab3e	0.048991434
179	0x3e2a09d8	0.16605318
180	0xbe2404fa	-0.16017523
181	0x3ce9b13d	0.028526897
182	0x3dea4e66	0.114407346
183	0x3df10597	0.11768644
184	0xbe0ffbac	-0.14060849
185	0x3d81579b	0.063155375
186	0xbdce0b15	-0.100607075
187	0xbbde75f2	-0.0067889625
188	0xbd16290b	-0.036660235
189	0xbe171fad	-0.14758177
190	0xbe2cad4d	-0.16862984
191	0xbded3984	-0.11583236
192	0x3da34df4	0.07973853
193	0x3da52396	0.08063428
194	0xbe1f0892	-0.15530613
195	0xbd87f5f9	-0.066387124
196	0x3af06144	0.0018339534
197	0xbe1cbe14	-0.15306884
198	0x3dc8ee9b	0.098111354
199	0x3e23f480	0.16011238
200	0x3cff72f7	0.03118275
201	0xbe0775b3	-0.13228492
202	0x3d211a34	0.03933163
203	0x3d8164ac	0.0631803
204	0x3e0dc201	0.13843538
205	0xbdc0a772	-0.09406938
206	0xbe222d4f	-0.15837596
207	0x3d9e5b35	0.0773224
208	0x3c27ea71	0.010248766
209	0xbd71b110	-0.05900675
210	0xbd97b3c9	-0.07407338
211	0xbdbb2fd8	-0.09139985
212	0x3e12624a	0.14295307
213	0xbcf9df49	-0.030501978
214	0x3e00203b	0.12512295
215	0x3e212e9a	0.15740433
216	0x3cb4f7d7	0.022090835
217	0x3d184938	0.0371792
218	0xbc4859be	-0.012228427
219	0x3df80a39	0.12111325
220	0xbe2396c5	-0.15975483
221	0x3d8f9e73	0.07012644
222	0xbcebf236	-0.028802019
223	0x3da2e5e8	0.079540074
224	0xba718620	-0.00092134066
225	0xbd860cf7	-0.065454416
226	0xbc9c5409	-0.01908304
227	0x3dc37f8f	0.09545814
228	0xbdfb7312	-0.12277807
229	0xbde4d826	-0.111740395
230	0xbd22a9e4	-0.0397128
231	0xbd835200	-0.06412125
232	0x3d8e3915	0.06944481
233	0x3df36f50	0.118864655
234	0xbc9bb5ee	-0.01900765
235	0x3e2b2aca	0.16715541
236	0xbd978652	-0.073986664
237	0xbdcb2951	-0.0991999
238	0xbda21523	-0.07914188
239	0xbdf96f44	-0.12179425
240	0xbdfdf255	-0.12399737
241	0xbe214a81	-0.15751077
242	0xbe206f05	-0.1566735
243	0x3d3cc2fc	0.04608439
244	0x3ddcaca7	0.10775118
245	0x3e29f313	0.16596632
246	0x3e1a0745	0.15041836
247	0xbc26cf26	-0.010181224
248	0x3d0c3905	0.034234066
249	0xbdd89d69	-0.105768986
250	0x3d8be09f	0.068299524
251	0xbe2d919b	-0.16950075
252	0x3daac38a	0.08338077
253	0x3d04a02e	0.03237932
254	0x3d5e8316	0.054324232
255	0x3d846637	0.064648084

bias f4 [32]
0	0x3d5622a7	0.05227914
1	0xbe1c9417	-0.15290867
2	0xbe0a2e1e	-0.13494155
3	0xbdaf7b2e	-0.085684165
4	0xbe26d7c6	-0.16293249
5	0x3b2c5da1	0.0026300924
6	0x3cab5d2d	0.020918453
7	0xbdd453d8	-0.103675544
8	0x3def63e1	0.11688972
9	0xbd897235	-0.067112364
10	0xbd4ac82c	-0.049507305
11	0x3e0bee3f	0.13665102
12	0x3e1adcf6	0.15123352
13	0xbc9e8384	-0.01934982
14	0xbe018e01	-0.12651826
15	0xbdaf1970	-0.08549774
16	0x3cb8682c	0.02251061
17	0x3dcae6e0	0.09907317
18	0x3dac9fa6	0.08428888
19	0xbda12b36	-0.0786957
20	0xbe2b2130	-0.16711879
21	0xbe1d9225	-0.15387781
22	0xbd6de3b9	-0.0580785
23	0x3b1153b7	0.0022175142
24	0xbda39e77	-0.07989209
25	0xbe109a8e	-0.14121458
26	0x3cc7162a	0.02430256
27	0xbe0f5a76	-0.13999352
28	0xbe0b0256	-0.1357511
29	0xbe1328b0	-0.1437099
30	0xbd4434ab	-0.04790179
31	0x3e1c4ece	0.15264437

weight f4 [32, 32]
0	0x3d8d8725	0.069105424
1	0xbcabb4ce	-0.020960238
2	0x3d1505f5	0.036382634
3	0x3d902ac6	0.070394084
4	0x3a86ff23	0.0010299425
5	0xbe12016c	-0.14258355
6	0xbddf0e7c	-0.108914346
7	0xbdf5f3b4	-0.12009373
8	0xbb93167f	-0.0044887657
9	0xbe25b495	-0.16182168
10	0xbd03a70d	-0.032141734
11	0xbd84632d	-0.06464229
12	0x3e31a59f	0.17348336
13	0x3e13230b	0.14368837
14	0x3dd24aa0	0.1026814
15	0x3c226e79	0.009914034
16	0xbd6a6fc1	-0.057235483
17	0x3d38b0d4	0.04509051
18	0xbdfa24ac	-0.12214026
19	0xbd9a6934	-0.07539597
20	0xbd1174e2	-0.03551186
21	0xbd2a2019	-0.041534517
22	0xbe2b7ae2	-0.16746095
23	0x3d8febee	0.07027422
24	0x3e1510f0	0.14557242
25	0xbdc7b0df	-0.09750532
26	0x3d432fd5	0.047653038
27	0xbca7f2e0	-0.020501554
28	0xbbd3455c	-0.0064474773
29	0x3c28d36d	0.010304314
30	0x3e1cde42	0.1531916
31	0x3cc209fc	0.023686402
32	0xbde31654	-0.11088243
33	0xbd82004f	-0.06347715
34	0x3db0dda3	0.08636024
35	0x3d61f39c	0.055163965
36	0x3b612aa3	0.003435769
37	0xbcbddbd8	-0.023176119
38	0xbd8b94df	-0.06815504
39	0xbd80799f	-0.062731974
40	0xbdbc9252	-0.09207596
41	0x3ced4c13	0.02896694
42	0x3d4b59f4	0.049646333
43	0x3e0b7f2e	0.13622734
44	0xbd22a277	-0.03970572
45	0x3c53686f	0.012903317
46	0x3dea352a	0.114359215
47	0x3d9f247c	0.07770631
48	0x3cba11f0	0.022713631
49	0x3d61d7d7	0.05513748
50	0x3c2187e3	0.009859058
51	0xbe1b18e6	-0.15146217
52	0x3bdf4fd1	0.006814935
53	0xbd1e0ed0	-0.038588345
54	0x3e2393c2	0.15974334
55	0x3e2364a0	0.15956354
56	0x3d0fc2af	0.035097774
57	0x3e2212e1	0.15827514
58	0xbdb974d7	-0.090554886
59	0x3e1de84f	0.1542065
60	0x3e1bdadf	0.15220211
61	0xbbdd6652	-0.0067565823
62	0xbe11450c	-0.14186496
63	0xbd6686aa	-0.05628077
64	0xbd416921	-0.0472194
65	0x3b40a044	0.00293924
66	0xbe241f14	-0.1602748
67	0x3d0630a4	0.03276123
68	0xbd9691a1	-0.07351995
69	0xbd39576e	-0.045249395
70	0xbdbae9a4	-0.09126595
71	0xbd18df8f	-0.037322577
72	0xbe280143	-0.16406731
73	0xbdbff0f9	-0.09372134
74	0x3c856942	0.016285542
75	0x3ded6bf7	0.11592858
76	0x3e248cde	0.16069362
77	0xbe08e9b1	-0.13370396
78	0x3d981218	0.07425326
79	0xbdcbf628	-0.0995906
80	0xbe0bf4d4	-0.13667613
81	0xbbfc559c	-0.007700635
82	0xbdcf9105	-0.10135082
83	0xbe1bdfc5	-0.1522208
84	0xbe292b4e	-0.16520426
85	0xbdf25371	-0.118323214
86	0x3e14c662	0.14528802
87	0x3dc9e970	0.09858978
88	0xbd8f4fdc	-0.06997654
89	0xbdf251ea	-0.1183203
90	0xbe0b373c	-0.13595289
91	0xbdd5bbf6	-0.10436241
92	0xbd94fa72	-0.07274331
93	0x3dd96fc1	0.106170185
94	0x3d6cf57f	0.05785131
95	0xbd8b5e7e	-0.06805132
96	0x3df93d21	0.121698625
97	0xbde0e913	-0.109819554
98	0xbe13796a	-0.14401785
99	0x3d1e07ad	0.03858154
100	0xbdc7a0e2	-0.09747483
101	0x3d4dfc00	0.050289154
102	0x3e195db6	0.14977154
103	0xbdab35c5	-0.08359865
104	0xbdfca28a	-0.12335689
105	0x3d88457a	0.066538766
106	0xbe237cb2	-0.15965536
107	0x3e21805d	0.15771623
108	0xbdaaf99a	-0.08348389
109	0x3daf07fa	0.08546443
110	0xbe0ff103	-0.14056782
111	0xbdf50d6e	-0.11965452
112	0x3c9f855c	0.01947277
113	0x3d80ab99	0.0628273
114	0x3e0c5c8c	0.13707179
115	0x3e176499	0.14784469
116	0xbc269240	-0.010166705
117	0xbcba2f6a	-0.022727687
118	0x3cef61f0	0.029221505
119	0xbd283257	-0.041063633
120	0x3bc52f78	0.0060176216
121	0xbe2b6f1e	-0.16741607
122	0xbe1499a2	-0.14511731
123	0x3df8176d	0.12113843
124	0xbdd38f49	-0.10330064
125	0x3e0e8cd3	0.13920908
126	0x3c9eed06	0.019400131
127	0x3d305fd1	0.043060128
128	0x3e248640	0.16066837
129	0xbdc95cc5	-0.098321475
130	0xbce49a47	-0.027905596
131	0x3d0048cd	0.03131943
132	0x3d776005	0.060394306
133	0xbe302bac	-0.1720416
134	0x3d80acde	0.06282972
135	0xbdd580ec	-0.104249805
136	0x3cbe3716	0.023219626
137	0x3df4efe8	0.11959821
138	0xbc90421c	-0.017609648
139	0xbbb73f96	-0.005592297
140	0xbc58661a	-0.013207937
141	0x3e170eb7	0.14751707
142	0x3dcdc1da	0.1004674
143	0x3cf388fc	0.029728405
144	0xbdd9e161	-0.10638691
145	0xbdc499b2	-0.095996276
146	0x3e10311b	0.14081232
147	0x3e023aa3	0.1271768
148	0x3dd19fbf	0.10235547
149	0xbe0d24d7	-0.13783585
150	0x3e0cf9ff	0.13767241
151	0xbc8a6e8e	-0.01689842
152	0x3e055e05	0.13024147
153	0x3e1d3968	0.1535393
154	0x3c9ebbd6	0.019376677
155	0xbd96a6a4	-0.07356003
156	0x3e2a46a7	0.16628514
157	0xbdbcaa66	-0.092121884
158	0x3dec8fb8	0.1155085
159	0xbe2d93e0	-0.16950941
160	0xbd65c1de	-0.05609309
161	0xbe1de8d2	-0.15420845
162	0xbda266e5	-0.07929782
163	0x3d99ba81	0.07506276
164	0xbe01b497	-0.12666546
165	0xbe1c9f27	-0.15295087
166	0x3e010ef0	0.12603354
167	0x3dc13edf	0.0943582
168	0xbb298b1c	-0.002587027
169	0xbdff391b	-0.12462064
170	0xbd3fd5a0	-0.046834588
171	0xbd6c73b4	-0.05772753
172	0x3ddf3b2b	0.10899957
173	0xbd6d5d9e	-0.05795061
174	0xbd50e99e	-0.051004045
175	0xbe00c8ab	-0.12576549
176	0xbdaa8408	-0.08325964
177	0x3dc31439	0.095253415
178	0x3de878ed	0.1135119
179	0x3cd1539d	0.025552565
180	0xbd87d613	-0.06632628
181	0x3e2dd67d	0.16976352
182	0x3d0e5139	0.03474543
183	0xbd8bbee3	-0.06823518
184	0xbd7b034a	-0.061282434
185	0xbccbb368	-0.024865821
186	0x3dab1bc9	0.08354909
187	0x3d83d8fd	0.064378716
188	0x3e033b5c	0.12815613
189	0xbc027fb4	-0.007965017
190	0x3e15b844	0.14621073
191	0xbd93ed5a	-0.072230056
192	0xbda33a2c	-0.0797008
193	0xbd8595e7	-0.06522732
194	0xbe29d573	-0.1658533
195	0xbdeda81b	-0.11604329
196	0xbe23ccc2	-0.15996078
197	0xbc26548c	-0.0101519935
198	0x3b31a6bb	0.0027107436
199	0xbd3be360	-0.04587114
200	0xbdf45fba	-0.11932321
201	0x3e243c9d	0.16038747
202	0xbd6fe929	-0.05857197
203	0x3daeed17	0.08541315
204	0x3dfcbd2d	0.1234077
205	0xbded8121	-0.11596895
206	0xbcb47ae7	-0.02203126
207	0x3dd3fb90	0.10350716
208	0x3e2f7905	0.17136009
209	0xbcafe81b	-0.021472981
210	0x3e046a61	0.12931205
211	0xbe0de9fe	-0.13858792
212	0xbdeb3b14	-0.11485878
213	0x3e14e2db	0.14539663
214	0xbc873aae	-0.016507473
215	0x3e32d545	0.17464168
216	0x3c53504a	0.01289756
217	0xbd952a12	-0.07283415
218	0x3e2cb770	0.16866851
219	0x3e1f682c	0.15567082
220	0x3c8665bd	0.016405934
221	0xbddb7843	-0.107162975
222	0xbbfacd79	-0.007653889
223	0xbdabae48	-0.08382851
224	0x3e00a40f	0.12562583
225	0x3c00c6bc	0.007859882
226	0x3d186f0f	0.03721529
227	0x3ddb9053	0.10720887
228	0x3d6fd82e	0.058555774
229	0xbde30536	-0.11084978
230	0x3e14410e	0.14477941
231	0x3dde5dd5	0.10857741
232	0xbde74a0c	-0.1129342
233	0x3e08de87	0.13366137
234	0x3d4d6871	0.05014843
235	0xbd1a58d6	-0.037682377
236	0xbe0234de	-0.1271548
237	0xbcf7a132	-0.030228231
238	0xbe31d363	-0.17365794
239	0x3dc96866	0.098343655
240	0x3e031a99	0.12803115
241	0xbd5b874b	-0.053595822
242	0x3e255e98	0.16149366
243	0xbd87231b	-0.06598493
244	0x3cf7fe85	0.030272732
245	0xbdfc892b	-0.1233085
246	0xbc052111	-0.008125559
247	0x3d9258cb	0.07145842
248	0x3d9bca25	0.076069154
249	0xbbdcff20	-0.0067442805
250	0xbdb9cf96	-0.09072797
251	0x3df90870	0.121598125
252	0x3defb185	0.11703781
253	0x3ce8668d	0.028369213
254	0xbda67e2d	-0.08129535
255	0x3d0f4d88	0.03498605

bias f4 [32]
0	0xbdc1c7fb	-0.09461971
1	0x3d8a2f5a	0.06747313
2	0x3dd2d6c1	0.10294867
3	0xbdedd2e6	-0.11612491
4	0xbda89e8f	-0.08233368
5	0x3db35a47	0.087574534
6	0xbc795181	-0.015217186
7	0x3ce35c4f	0.027753977
8	0x3dc3e7be	0.09565686
9	0xbd85d22a	-0.06534226
10	0xbdc8ec0a	-0.09810646
11	0x3d854de8	0.06509
12	0xbd8493a8	-0.06473476
13	0xbde8f834	-0.11375466
14	0xbdb69e33	-0.08916893
15	0xbda855d9	-0.08219499
16	0x3e2cc46d	0.16871805
17	0x3cc2348b	0.023706695
18	0x3d90a49e	0.07062648
19	0x3cbec709	0.023288267
20	0xbdf41126	-0.11917333
21	0x3e0331c1	0.12811948
22	0xbcd7063f	-0.026248096
23	0xbd3c13b1	-0.045917217
24	0x3e125e64	0.1429382
25	0xbdb86d25	-0.09005193
26	0x3d2f7a19	0.04284105
27	0xbe19fd7c	-0.15038103
28	0x3dcddf9e	0.10052417
29	0x3d8cd0f6	0.06875794
30	0xbe14d9fd	-0.14536281
31	0x3ddb73a2	0.107154146

weight f4 [32, 32]
0	0x3c9f5e4b	0.019454142
1	0xbdbaf1af	-0.09128129
2	0x3e1a57d8	0.15072572
3	0x3d9b7c69	0.07592089
4	0x3d7e73d9	0.0621222
5	0xbd86786f	-0.0656594
6	0xbdc68360	-0.096930265
7	0xbdc2cdca	-0.095119074
8	0x3d8804e9	0.066415615
9	0x3d430e77	0.047621217
10	0xbdd8ade8	-0.10580045
11	0x3e24b80b	0.16085832
12	0x3dd2ee16	0.102993175
13	0xbd8a3aa9	-0.0674947
14	0x3dbb4fb2	0.0914606
15	0xbd9977b4	-0.07493535
16	0x3d633c4e	0.055477433
17	0x3e16ab18	0.14713705
18	0xbe201e0d	-0.15636463
19	0xbdb40218	-0.08789462
20	0xbc23afdb	-0.009990658
21	0x3cd7f4f7	0.026361926
22	0xbe14dd96	-0.14537653
23	0xbdee2f93	-0.11630168
24	0xbc8ab3c4	-0.016931422
25	0xbcd0cabb	-0.025487294
26	0x3d1c2df6	0.03812977
27	0x3cb80396	0.022462647
28	0x3d1489e7	0.036264326
29	0x3c4001a5	0.011719142
30	0x3ca67263	0.020318216
31	0xbc272bdf	-0.010203331
32	0x3d82042b	0.06348451
33	0x3df71711	0.120649464
34	0xbdb4aced	-0.088220455
35	0xbdbb8dfa	-0.09157939
36	0x3d9ee77d	0.07758997
37	0xbe02e6b4	-0.12783319
38	0x3deb4613	0.11487975
39	0x3da7410f	0.08166706
40	0x3cd17311	0.025567563
41	0xbd9d2cfe	-0.07674597
42	0x3badb1e1	0.005300746
43	0xbe0f1fa5	-0.13976915
44	0xbe22dc1a	-0.15904275
45	0x3e2a7770	0.16647124
46	0xbe225c6a	-0.15855566
47	0xbe163396	-0.14668116
48	0xbd8ca208	-0.068668425
49	0x3c22a629	0.009927311
50	0x3d25d6a0	0.040487885
51	0xbdb26804	-0.08711246
52	0xbc8c86fc	-0.01715421
53	0xbd21b18b	-0.03947596
54	0x3e1776a7	0.14791356
55	0x3e1d1dd0	0.15343404
56	0x3d94cd1a	0.072656825
57	0xba8ed314	-0.0010896646
58	0x3e07c0a1	0.13257076
59	0xbe1226f5	-0.14272673
60	0x3d974418	0.07386035
61	0xbdd27014	-0.102752835
62	0x3e0d2b86	0.13786134
63	0xbe2004d5	-0.15626843
64	0x3d868436	0.06568186
65	0xbe146fb4	-0.14495736
66	0x3dd375e7	0.103252225
67	0x3d0465b4	0.032323554
68	0x3e1b5255	0.15168126
69	0xbe07fb2e	-0.13279411
70	0x3de9139b	0.113806926
71	0xbdf0cb62	-0.11757542
72	0xbdc23c8f	-0.09484207
73	0x3d89b430	0.06723821
74	0xbcf3c215	-0.029755631
75	0xbe0eebb7	-0.13957106
76	0xbe1a081e	-0.15042159
77	0xbd3bd83d	-0.045860518
78	0x3d487b28	0.048945576
79	0x3e1effca	0.15527263
80	0x3e06bea6	0.13158664
81	0x3b70625e	0.0036679725
82	0xbddcb639	-0.10776944
83	0xbe20bdc8	-0.15697396
84	0x3e21b913	0.15793256
85	0xbdc83fb8	-0.097777784
86	0xbcfe5945	-0.031048426
87	0xbe11b90b	-0.14230745
88	0xbdf867a2	-0.121291414
89	0x3d0c7f24	0.03430094
90	0xbd32b607	-0.043630626
91	0x3ca5d574	0.020243384
92	0xb9947cf4	-0.00028321857
93	0x3c18ce21	0.009326489
94	0xbd0f78d4	-0.03502734
95	0xbbcbfb87	-0.0062250528
96	0x3d9d5dda	0.076839164
97	0x3e043cee	0.12913868
98	0x3e1900bd	0.14941688
99	0xbe13b016	-0.1442264
100	0xbe190472	-0.14943102
101	0xbcd86eb9	-0.026419984
102	0xbc5cf310	-0.013485685
103	0x3dc7d29f	0.0975697
104	0x3e2a6777	0.16641031
105	0x3d39f0f8	0.04539582
106	0xbe009212	-0.12555721
107	0xbca3ea97	-0.020009322
108	0x3dea23fb	0.11432644
109	0x3d85935a	0.06522246
110	0xbe0004f4	-0.1250189
111	0x3c290d3b	0.010318096
112	0xbe2ec937	-0.17068945
113	0xbd91e307	-0.0712338
114	0x3dfd3609	0.12363822
115	0xbd9d0be7	-0.07668286
116	0x3ddd0c08	0.107933104
117	0xbe13a71f	-0.1441922
118	0x3e200a3c	0.15628904
119	0x3dacb1c6	0.08432345
120	0x3dea9aca	0.11455305
121	0x3d45bd8d	0.048276473
122	0x3c4d31a3	0.012524041
123	0xbdb24c7b	-0.08705994
124	0xbdc7c536	-0.09754412
125	0xbdf89e76	-0.12139599
126	0x3e159a42	0.14609626
127	0xbd7b5000	-0.06135559
128	0x3b8d1f25	0.0043066912
129	0xbe2a2d72	-0.16618899
130	0x3d425567	0.047444727
131	0xbd76d3fd	-0.06026076
132	0xbe10c8cf	-0.14139102
133	0x3cb33a59	0.021878408
134	0xbe26c1f2	-0.16284922
135	0xbc8eae21	-0.017417016
136	0xbe13d400	-0.1443634
137	0x3de4e1d4	0.11175886
138	0xbe0fc252	-0.14038971
139	0x3cec853e	0.028872129
140	0x3db34310	0.087530255
141	0xbe10a30d	-0.14124699
142	0x3dea5ef0	0.11443889
143	0x3e136cb2	0.14396933
144	0xbdddedb8	-0.10836357
145	0x3c728728	0.014802732
146	0x3d5b924e	0.053606324
147	0x3e15ebce	0.14640734
148	0x3e0d6cc4	0.13811022
149	0xbe17d757	-0.1482824
150	0xbe138afb	-0.14408486
151	0xbe200f83	-0.15630917
152	0xbda1036e	-0.07861982
153	0xbd12290a	-0.03568367
154	0xbd81e68c	-0.063428015
155	0x3dee8e34	0.11648217
156	0xbdf981ce	-0.121829614
157	0xbe1079ef	-0.14109014
158	0xbe0d817d	-0.13818927
159	0xbdd5b228	-0.10434371
160	0x3e314d52	0.17314652
161	0x3cabbf71	0.02096531
162	0xbcffc73c	-0.031222932
163	0xbd54cac7	-0.051951196
164	0xbe0aa5a6	-0.13539752
165	0xbd7d65e6	-0.061864756
166	0x3dbe803e	0.09301804
167	0x3df1c83e	0.11805771
168	0x3e007938	0.12546241
169	0x3c4e331c	0.012585428
170	0xbdc5621d	-0.09637854
171	0xbdd5bc52	-0.1043631
172	0x3e2fec9e	0.17180106
173	0xbe23833a	-0.15968028
174	0x3d2b6bdd	0.041850913
175	0xbc88bacd	-0.016690636
176	0x3e225ef6	0.15856537
177	0x3dce7a4f	0.10081922
178	0xbd408d78	-0.047009915
179	0xbe187cb8	-0.14891326
180	0x3cbe3acc	0.023221396
181	0xbe017226	-0.126412
182	0xbc99ef97	-0.018791003
183	0x3d306d53	0.04307301
184	0x3daa4c14	0.08315292
185	0xbd43d4fc	-0.04781054
186	0xbdf4e782	-0.11958219
187	0xbe1a2b29	-0.15055527
188	0xbe2f5198	-0.1712097
189	0x3cac5ce2	0.021040384
190	0xbddc59d7	-0.10759323
191	0x3b8b9304	0.004259469
192	0xbdab8467	-0.08374863
193	0xbdf80427	-0.12110167
194	0x3df38461	0.11890484
195	0x3dcce257	0.100041084
196	0x3dfe33b0	0.12412202
197	0x3e2b8ca0	0.16752863
198	0xbe031981	-0.12802698
199	0xbdc3dd10	-0.09563649
200	0xbe0a8bda	-0.13529912
201	0x3df319c5	0.118701495
202	0x3dd550ce	0.10415803
203	0x3e12bdcb	0.14330213
204	0xbdfd52f3	-0.12369337
205	0xbdc26e22	-0.094936624
206	0x3e3078bd	0.17233558
207	0xbe0fbe47	-0.14037429
208	0xbdfd78e5	-0.123765744
209	0x3d7e74c3	0.06212307
210	0xbe20d86c	-0.15707558
211	0xbd569fc8	-0.052398473
212	0x3d99d527	0.07511359
213	0x3e113a0f	0.14182304
214	0xbca5a042	-0.020218018
215	0xbe21828c	-0.15772456
216	0x3dc5e83f	0.09663438
217	0x3e34770f	0.17623542
218	0xbe06aa19	-0.13150825
219	0xbbffe9cc	-0.007809853
220	0xbe071ffd	-0.13195796
221	0xbdbb60f1	-0.091493495
222	0x3d73abcf	0.05949002
223	0x3da45d81	0.08025647
224	0x3d95b519	0.07309932
225	0xbe2b8adf	-0.16752194
226	0xbd305f32	-0.043059535
227	0x3d9a4c66	0.07534103
228	0xbc866b87	-0.016408695
229	0xbd65a906	-0.056069396
230	0xbdbb2f02	-0.091398254
231	0x3e2a8b84	0.16654783
232	0xbe1277d9	-0.14303531
233	0xbe0e9797	-0.13925014
234	0x3e03e952	0.12881973
235	0xbddbe763	-0.10737493
236	0x3ddac5e8	0.10682279
237	0xbdc7c1ec	-0.097537845
238	0xbcc3e726	-0.023913931
239	0xbdaeecbd	-0.08541248
240	0x3e11477c	0.14187425
241	0x3df6c8e9	0.12050039
242	0x3bdc7dc9	0.006728862
243	0x3b280a30	0.0025640838
244	0xbd88a197	-0.06671446
245	0xbdc5c639	-0.096569486
246	0xbd892aa1	-0.06697584
247	0x3d6971ea	0.056993403
248	0xbd0bfddc	-0.034177646
249	0x3df5be6d	0.119992115
250	0x3ccef75c	0.025264435
251	0x3affc6cb	0.0019514201
252	0xbde6c496	-0.112679645
253	0x3d904e2b	0.07046159
254	0xbe2771b6	-0.16351971
255	0x3d229159	0.039689396

bias f4 [32]
0	0xbc9bc390	-0.01901415
1	0xbdfb70d9	-0.12277383
2	0x3e0505d6	0.12990507
3	0xbe2575bf	-0.16158198
4	0xbd78ac0d	-0.060710955
5	0x3d46a6d4	0.048498943
6	0x3e0a3c91	0.13499667
7	0x3e209adb	0.15684073
8	0xbd70359f	-0.058644887
9	0x3d71913e	0.058976404
10	0xbe1efa14	-0.15525085
11	0xbd0ce425	-0.034397263
12	0xbd6cbebe	-0.057799093
13	0x3d5f190e	0.054467253
14	0xbded356a	-0.115824535
15	0x3cbb1a56	0.022839706
16	0x3ddab77b	0.10679527
17	0x3e228066	0.15869293
18	0xbcfb5e16	-0.030684512
19	0x3e3459e3	0.17612414
20	0xbe2b0735	-0.16701968
21	0xbd4d5b1c	-0.050135717
22	0x3d9eaf93	0.07748332
23	0x3d29f2b6	0.041491233
24	0x3dd5103e	0.104034886
25	0xbdf03d68	-0.11730462
26	0x3dc2aaf6	0.095052645
27	0xbe29e41f	-0.16590928
28	0xbdf83df6	-0.12121193
29	0xbb8a49d5	-0.0042202272
30	0xbe2fdc8e	-0.17173979
31	0xbe2c1069	-0.16803135

weight f4 [1, 32]
0	0xbe20b25e	-0.15693042
1	0x3e11899b	0.14212649
2	0x3d3a661a	0.045507528
3	0xbd670844	-0.056404367
4	0xbbee11e3	-0.007265316
5	0xbe132469	-0.14369358
6	0xbe1f4523	-0.15553717
7	0xbdcda3b9	-0.10040993
8	0xbe2d83e9	-0.16944851
9	0x3dee3097	0.116303615
10	0xbd7d608a	-0.061859645
11	0xbd4375e1	-0.04771984
12	0xbe1bdecb	-0.15221708
13	0x3d1232f5	0.035693128
14	0xbcd945d0	-0.026522547
15	0xbde6f2ee	-0.11276804
16	0x3df874be	0.12131642
17	0x3e2cb77f	0.16866873
18	0xbe010586	-0.12599763
19	0x3df9047c	0.121590585
20	0xbceb2597	-0.028704448
21	0xbacc57f9	-0.0015590183
22	0x3dab7c14	0.083732754
23	0xbcd47d48	-0.025938645
24	0x3e296456	0.16542181
25	0x3ddec002	0.10876466
26	0xbdc1f204	-0.09469989
27	0xbddc52ba	-0.10757966
28	0xbe335a9d	-0.17515035
29	0x3d7d96de	0.061911456
30	0xbe08290d	-0.1329691
31	0xbe17ba03	-0.14817052
